models/bio_age_model.pkl (torch, 5237 bytes, 13 tensors)

linear_relu_stack.0.weight f4 [3, 3]
00000000: 9f36 9e3e 72b8 fe3f 8840 423e 6494 a43e
00000010: 8b2f 0340 80d5 b93e f6c0 68bc c5d8 ee3f
00000020: fa20 35bf
0.30901048 1.9900038 0.18969929 0.32144463 2.0497768 0.362957 -0.014206162 1.8659903
-0.70753443

linear_relu_stack.0.bias f4 [3]
00000000: 3426 273e 48b5 073e 8255 edbe
0.16323167 0.13252747 -0.463543

linear_relu_stack.1.weight f4 [3]
00000000: 78c0 653f 8822 443f a95a 683f
0.8974681 0.7661519 0.90763336

linear_relu_stack.1.bias f4 [3]
00000000: 5af5 6c3f 04a0 693f 8a2d 943f
0.92561877 0.9125979 1.1576397

linear_relu_stack.1.running_mean f4 [3]
00000000: 2c6f 2e41 0d9e 3d41 ebde 373e
10.902142 11.851087 0.1795613

linear_relu_stack.1.running_var f4 [3]
00000000: 03ba 8c40 5ed7 9740 90ae 403d
4.3977065 4.74504 0.047041476

linear_relu_stack.4.weight f4 [3, 3]
00000000: 6cf9 613f 0cc5 6d3b b2ca 9d3f f91c 313f
00000010: 3748 393f 84cb 0b3f 93b5 9fbe a4e0 32bf
00000020: 6edd 15bf
0.8827121 0.003628078 1.2327483 0.69184834 0.72375816 0.54607415 -0.31193218 -0.69874024
-0.58541

linear_relu_stack.4.bias f4 [3]
00000000: fe49 d0bd ceec a83d 182a f3be
-0.10170363 0.08248292 -0.47493052

linear_relu_stack.5.weight f4 [3]
00000000: 2c6a de3e 2409 063f eed8 cb3e
0.43440378 0.523577 0.39813942

linear_relu_stack.5.bias f4 [3]
00000000: 4402 8040 826a 8440 f9bd 82c0
4.0002766 4.1380014 -4.08569

linear_relu_stack.5.running_mean f4 [3]
00000000: ff05 0840 b702 0340 e915 03c0
2.125366 2.0470407 -2.0482123

linear_relu_stack.5.running_var f4 [3]
00000000: 07f3 8b40 9e42 3340 556b fd3f
4.3734164 2.800941 1.979838

linear_relu_stack.7.weight f4 [1, 3]
00000000: d6f5 9640 9b43 8c40 e82e 93c0
4.7175093 4.3832526 -4.599476
